aa_test_tokenizer_NER/best_ner_model.pth (torch, 445795 bytes, 11 tensors)

word_embeds.weight f4 [232, 100]
0.0 0.0 0.0 0.0 0.0 0.0 0.0 0.0
0.0 0.0 0.0 0.0 0.0 0.0 0.0 0.0
0.0 0.0 0.0 0.0 0.0 0.0 0.0 0.0
0.0 0.0 0.0 0.0 0.0 0.0 0.0 0.0
0.0 0.0 0.0 0.0 0.0 0.0 0.0 0.0
0.0 0.0 0.0 0.0 0.0 0.0 0.0 0.0
0.0 0.0 0.0 0.0 0.0 0.0 0.0 0.0
0.0 0.0 0.0 0.0 0.0 0.0 0.0 0.0
0.0 0.0 0.0 0.0 0.0 0.0 0.0 0.0
0.0 0.0 0.0 0.0 0.0 0.0 0.0 0.0
0.0 0.0 0.0 0.0 0.0 0.0 0.0 0.0
0.0 0.0 0.0 0.0 0.0 0.0 0.0 0.0
0.0 0.0 0.0 0.0 0.6347774 0.6369373 1.1236321 -0.39509645
-0.2325589 0.74269587 0.4245038 0.26208055 0.276549 1.3150654 -0.04399039 -0.35225394
-1.5431596 -0.15080667 -0.6838774 0.4193609 0.78648037 0.15427347 -0.3087859 0.5149921
-0.08204224 0.27425814 0.20633005 0.8211523 1.0343223 0.39117673 0.74528044 0.4393084
2.0133078 1.0660914 -1.5126102 -1.0980508 -0.07374404 1.6745127 0.60664815 0.63420355
1.194052 -0.041708916 -1.8479284 0.98619443 -0.32473522 0.99813294 -0.73404104 0.6362907
-1.050511 1.0162723 1.5694662 1.5329132 0.31009075 -0.21318151 -0.76934975 0.19030021
0.3438401 0.9997933 -0.47990954 1.604445 -2.5762863 -0.46263584 -1.2712638 0.81645256
-1.9579569 0.26576474 0.056281663 -0.30143496 0.21407597 -0.79258466 0.15276921 -1.0532061
-1.6649528 1.4325727 1.3306363 0.11985058 -1.5680383 0.7782556 0.7943854 2.0744781
0.06786479 0.1152972 -0.8875951 -0.2712848 -0.9953132 -1.6026053 -1.2040606 -0.5848018
-0.4799251 -1.5701065 -1.9430121 0.19225022 1.102104 -0.57529026 0.6232748 0.66158843
1.7772945 -0.99581736 1.0313479 -0.34056902 -1.1625726 0.35853106 0.47271606 1.3537697
0.5586419 2.1635814 -0.5538443 -0.9646529 0.2218045 1.1082529 1.3404474 0.48893863
-0.8638079 -1.0478547 -0.5456644 -0.63674897 0.082478106 0.43153065 -0.19682713 -2.3618398
-0.42915183 1.1152151 -1.8301164 1.5629354 0.36829406 -0.5583663 1.0813665 1.7498788
0.042993367 1.7401272 0.08853141 -1.0264516 -0.577466 0.123346195 0.31869966 2.023006
-0.06617231 -0.9480856 -2.0668674 -1.1245692 0.008567798 0.033647306 0.22024743 0.44852212
-0.9714898 0.3264044 -0.56737167 0.4674442 -0.8814347 0.0035195826 -0.38714877 1.5063983
1.3072002 -0.77532446 0.8520083 0.5446587 0.5758634 0.6014313 0.56944054 0.275096
00000000: 0000 0000 0000 0000 0000 0000 0000 0000
00000010: 0000 0000 0000 0000 0000 0000 0000 0000
00000020: 0000 0000 0000 0000 0000 0000 0000 0000
00000030: 0000 0000 0000 0000 0000 0000 0000 0000
00000040: 0000 0000 0000 0000 0000 0000 0000 0000
00000050: 0000 0000 0000 0000 0000 0000 0000 0000
00000060: 0000 0000 0000 0000 0000 0000 0000 0000
00000070: 0000 0000 0000 0000 0000 0000 0000 0000
00000080: 0000 0000 0000 0000 0000 0000 0000 0000
00000090: 0000 0000 0000 0000 0000 0000 0000 0000
000000a0: 0000 0000 0000 0000 0000 0000 0000 0000
000000b0: 0000 0000 0000 0000 0000 0000 0000 0000
000000c0: 0000 0000 0000 0000 0000 0000 0000 0000
000000d0: 0000 0000 0000 0000 0000 0000 0000 0000
000000e0: 0000 0000 0000 0000 0000 0000 0000 0000
000000f0: 0000 0000 0000 0000 0000 0000 0000 0000
00000100: 0000 0000 0000 0000 0000 0000 0000 0000
00000110: 0000 0000 0000 0000 0000 0000 0000 0000
00000120: 0000 0000 0000 0000 0000 0000 0000 0000
00000130: 0000 0000 0000 0000 0000 0000 0000 0000
00000140: 0000 0000 0000 0000 0000 0000 0000 0000
00000150: 0000 0000 0000 0000 0000 0000 0000 0000
00000160: 0000 0000 0000 0000 0000 0000 0000 0000
00000170: 0000 0000 0000 0000 0000 0000 0000 0000
00000180: 0000 0000 0000 0000 0000 0000 0000 0000
00000190: c680 223f 530e 233f 2dd3 8f3f 154a cabe
000001a0: ec23 6ebe 5121 3e3f 9058 d93e 6c2f 863e
000001b0: d597 8d3e 1054 a83f 442f 34bd a15a b4be
000001c0: 4186 c5bf 106d 1abe 9712 2fbf 79b6 d63e
000001d0: c756 493f ddf9 1d3e 2f19 9ebe 86d6 033f
000001e0: c305 a8bd 906b 8c3e 2f48 533e 0a37 523f
000001f0: ac64 843f 5148 c83e b3ca 3e3f 08ed e03e
00000200: 09da 0040 af75 883f 369d c1bf ee8c 8cbf
00000210: 1e07 97bd 6f56 d63f 4b4d 1b3f 2a5b 223f
00000220: b2d6 983f f8d6 2abd eb88 ecbf 3d77 7c3f
00000230: b243 a6be a485 7f3f 1dea 3bbf f3e3 223f
00000240: 2577 86bf 3615 823f 45e4 c83f 8036 c43f
00000250: 37c4 9e3e 414c 5abe 1bf4 44bf 0fde 423e
00000260: cf0b b03e 74f2 7f3f b4b6 f5be 745e cd3f
00000270: e0e1 24c0 9bde ecbe c6b8 a2bf 0903 513f
00000280: 559e fabf 5112 883e 9a87 663d af55 9abe
00000290: bb36 5b3e d4e6 4abf 886f 1c3e 75cf 86bf
000002a0: 2c1d d5bf 8b5e b73f 4a52 aa3f 3974 f53d
000002b0: 7bb5 c8bf c23b 473f d75c 4b3f 40c4 0440
000002c0: b2fc 8a3d f020 ec3d 6f39 63bf d7e5 8abe
000002d0: d9cc 7ebf 2c22 cdbf a81e 9abf 92b5 15bf
000002e0: beb8 f5be 40f9 c8bf 9fb4 f8bf 3edd 443e
000002f0: be11 8d3f 3946 13bf f08e 1f3f dc5d 293f
00000300: 637e e33f e3ed 7ebf 3503 843f 105f aebe
00000310: 2ecf 94bf 6291 b73e d707 f23e 5348 ad3f
00000320: 2803 0f3f 1e78 0a40 bdc8 0dbf 7ef3 76bf
00000330: b820 633e 3bdb 8d3f c893 ab3f 2a56 fa3e
00000340: 8422 5dbf 1a20 86bf aab0 0bbf fb01 23bf
00000350: 48ea a83d 96f1 dc3e 0d8d 49be 6228 17c0
00000360: cab9 dbbe 5ebf 8e3f 4141 eabf 440e c83f
00000370: 0a91 bc3e 18f1 0ebf 386a 8a3f 07fc df3f
00000380: d019 303d 7dbc de3f f54f b53d c462 83bf
00000390: d0d4 13bf ee9c fc3d 9a2c a33e ee78 0140
000003a0: 5985 87bd bdb5 72bf 8e47 04c0 e2f1 8fbf
000003b0: f35f 0c3c c2d1 093d 8b88 613e b1a4 e53e
000003c0: 8eb3 78bf 7a1e a73e 453f 11bf d954 ef3e
000003d0: b4a5 61bf cca8 663b 5d38 c6be a9d1 c03f
000003e0: 5652 a73f aa7b 46bf 371d 5a3f c16e 0b3f
000003f0: c96b 133f 67f7 193f dbc6 113f 62d9 8c3e

lstm.weight_ih_l0 f4 [256, 100]
-0.0023841073 -0.055392087 -0.08902291 -0.01900765 -0.051973145 -0.061784267 -0.014599151 -0.116190456
-0.032810505 -0.056942407 0.12753522 0.0038442416 0.08336825 -0.01926505 0.009343332 0.05644405
0.04255428 0.035701606 0.015857797 0.07145973 -0.022868551 -0.16926952 -0.057104584 0.08792517
0.14397103 0.039402697 -0.09389757 0.016609937 0.0026549678 0.0673254 -0.106799774 0.06793446
-0.11880662 0.024910504 -0.014601988 0.15613188 0.13406062 -0.13801637 -0.000851475 -0.04041545
-0.08436966 0.07027913 -0.12568413 0.082562454 -0.03883447 0.06529996 0.04326753 -0.0608111
0.06677307 0.065274075 -0.10843641 -0.08002066 0.09888533 0.13956161 -0.11335506 0.07732267
0.029121555 -0.031069038 -0.15552054 -0.03437381 0.027648112 -0.107303746 -0.08783787 0.122688
-0.0909444 -0.13050069 0.03963442 0.0830994 0.1034596 0.072127454 -0.015351832 -0.12758143
-0.14114988 0.086510964 0.009177761 0.07252819 -0.04348634 -0.17202757 0.03574902 -0.042738054
0.0078077796 -0.00030141964 -0.09307509 -0.05222114 -0.109667934 0.04506887 -0.05103004 0.055756893
-0.08996832 -0.12759355 0.078335054 -0.14981048 0.0013113567 0.07883545 -0.11654533 0.029907592
-0.032816045 0.0029308794 0.09664578 0.09755831 0.13378027 0.042562515 -0.0009353515 -0.10858217
0.16382694 0.027445447 0.12734082 -0.080475554 0.044217885 0.09924918 0.067811 0.11403499
-0.0837371 -0.055812385 0.013552753 0.042252872 -0.056102343 -0.024045492 -0.036045615 0.011791562
0.028962249 0.11087285 0.03269285 -0.024582397 -0.05285777 0.13328683 0.028228695 -0.060511835
-0.053380385 -0.07921095 0.14179847 -0.049098905 -0.12028325 -0.052662097 -0.081661895 0.0004999946
-0.021082167 0.095670335 -0.06565416 -0.00415174 -0.11315732 -0.032793757 0.18647897 -0.006457081
-0.025349526 -0.087679535 0.07812065 0.04566753 -0.03205393 0.039067503 -0.10167489 -0.042557508
-0.05438952 0.06426623 0.049257852 -0.07372105 0.0058540404 -0.043700907 0.04828311 -0.023710158
-0.16003098 -0.10351717 -0.020718792 0.14182927 0.04341683 0.0061331536 -0.045477524 -0.11474555
0.059286445 -0.05165913 0.0414153 -0.111897744 -0.15172905 -0.03513639 0.029325934 -0.12895542
-0.10355 0.015608895 -0.024283057 0.0492369 0.04316121 -0.03444841 -0.05196956 -0.13650754
-0.012779298 -0.045056753 -0.025356004 -0.04621056 0.11085265 -0.027165832 0.054465562 -0.1115701
0.1501284 -0.14675471 -0.022416309 -0.08522371 0.10112809 -0.020797163 -0.055272274 -0.027190764
0.099134356 0.1190646 0.14270306 -0.15912573 -0.025618838 0.07356697 0.02293617 -0.05769963
0.08320212 -0.038226385 0.040982626 0.027637182 -0.0984255 -0.12919798 -0.11448423 0.047291335
-0.14708479 0.018810634 -0.050739862 0.0046655573 -0.034562264 -0.15320916 -0.06394616 0.019576961
0.05011838 0.070125006 0.092386365 -0.08240455 0.041298147 0.109179035 -0.13051707 0.12766445
-0.007097058 -0.019978434 -0.14814262 0.06918986 0.04441313 0.08209087 0.068182975 -0.064120874
0.08468748 0.069918364 -0.028228734 0.10200782 -0.03661098 0.011762357 -0.030381063 0.10785004
0.10244436 -0.07627409 -0.056311633 0.017270481 -0.052285578 0.04504763 0.049431413 0.027430559
00000000: af3e 1cbb d0e2 62bd a551 b6bd eeb5 9bbc
00000010: cbe1 54bd 8011 7dbd 4731 6fbc 43f5 edbd
00000020: 4f64 06bd 713c 69bd 9898 023e acef 7b3b
00000030: f9bc aa3d bdd1 9dbc c614 193c e031 673d
00000040: 664d 2e3d d93b 123d 36e8 813c 7b59 923d
00000050: d456 bbbc fd54 2dbe 7fe6 69bd 1d12 b43d
00000060: 246d 133e b964 213d 5f4d c0bd 9011 883c
00000070: f8fe 2d3b e6e1 893d d7b9 dabd 3921 8b3d
00000080: e350 f3bd 1d11 cc3c 2d3d 6fbc 09e1 1f3e
00000090: 3047 093e 2a54 0dbe 8535 5fba ac8a 25bd
000000a0: 00ca acbd 81ee 8f3d 57b3 00be 8116 a93d
000000b0: e510 1fbd fcbb 853d 4b39 313d 0f15 79bd
000000c0: 52c0 883d 6aae 853d e913 debd dfe1 a3bd
000000d0: 6484 ca3d 3de9 0e3e b326 e8bd 595b 9e3d
000000e0: 5490 ee3c 7f84 febc c740 1fbe 8dcb 0cbd
000000f0: 4b7e e23c 11c2 dbbd 57e4 b3bd d943 fb3d
00000100: 0f41 babd f9a1 05be b457 223d 0530 aa3d
00000110: a0e2 d33d 8fb7 933d 4086 7bbc b5a4 02be
00000120: 9889 10be a92c b13d 525e 163c a989 943d
00000130: bc1e 32bd ff27 30be 906d 123d 190e 2fbd
00000140: 67d8 ff3b dc07 9eb9 279e bebd d6e5 55bd
00000150: 9599 e0bd 239a 383d e004 51bd 5761 643d
00000160: 5041 b8bd e2a7 02be 216e a03d eb67 19be
00000170: d4e1 ab3a 7b74 a13d 51af eebd c400 f53c
00000180: 1e6a 06bd ff13 403b 39ee c53d a7cc c73d
00000190: b2fd 083e 0856 2e3d 6032 75ba 5460 debd
000001a0: 40c2 273e 46d5 e03c a265 023e 5ed0 a4bd
000001b0: d01d 353d 2743 cb3d 7ee0 8a3d 2d8b e93d
000001c0: 5b7e abbd 879b 64bd 5e0c 5e3c 5911 2d3d
000001d0: 92cb 65bd 0dfb c4bc 91a4 13bd 6531 413c
000001e0: 3d42 ed3c 4e11 e33d f0e8 053d 0661 c9bc
000001f0: 6481 58bd 587c 083e dd3f e73c 42db 77bd
00000200: 64a5 5abd 5a39 a2bd 9e33 113e ef1b 49bd
00000210: 1157 f6bd 36b4 57bd 5a3e a7bd 1212 033a
00000220: 82b4 acbc cfee c33d b075 86bd 520b 88bb
00000230: 06bf e7bd bf52 06bd 58f4 3e3e ec95 d3bb
00000240: cfa9 cfbc 5491 b3bd b8fd 9f3d e00d 3b3d
00000250: fb4a 03bd 3f05 203d ed3a d0bd c850 2ebd
00000260: 8cc7 5ebd 039e 833d 9ac2 493d 10fb 96bd
00000270: 40d3 bf3b b9ff 32bd 83c4 453d ce3b c2bc
00000280: 29df 23be cf00 d4bd 75ba a9bc b13b 113e
00000290: d9d5 313d 9ff8 c83b a446 3abd b7ff eabd
000002a0: 58d6 723d 8698 53bd 17a3 293d a52a e5bd
000002b0: dc5e 1bbe 2deb 0fbd f13c f03c e40c 04be
000002c0: 0612 d4bd 73bc 7f3c 43ed c6bc a2ac 493d
000002d0: cfc9 303d c719 0dbd 09de 54bd a2c8 0bbe
000002e0: 4360 51bc 6e8d 38bd 65b7 cfbc 4947 3dbd
000002f0: b706 e33d e18a debc 4817 5f3d dd7e e4bd
00000300: 42bb 193e de46 16be 68a2 b7bc c589 aebd
00000310: 3e1c cf3d d05e aabc 2e65 62bd 2abf debc
00000320: f406 cb3d 24d8 f33d c020 123e dbf1 22be
00000330: 99de d1bc 48aa 963d a3e4 bb3c 7256 6cbd
00000340: e065 aa3d 4593 1cbd 66dd 273d 5f67 e23c
00000350: 4f93 c9bd 7a4c 04be b576 eabd 8fb4 413d
00000360: 659d 16be c218 9a3c 9ad4 4fbd 88e1 983b
00000370: 2991 0dbd dde2 1cbe 34f6 82bd dd5f a03c
00000380: ee48 4d3d b39d 8f3d 1035 bd3d b7c3 a8bd
00000390: 3f28 293d 4299 df3d 44a6 05be 78ba 023e
000003a0: 708e e8bb d0a9 a3bc b3b2 17be 6ab3 8d3d
000003b0: 8bea 353d 421f a83d 84a3 8b3d ce51 83bd
000003c0: a170 ad3d 5c31 8f3d f23f e7bc 7ae9 d03d
000003d0: 65f5 15bd e7b6 403c b5e1 f8bc 7be0 dc3d
000003e0: 59ce d13d 9735 9cbd 07a7 66bd d37a 8d3c
000003f0: 6729 56bd dd83 383d 9878 4a3d 0db6 e03c

lstm.weight_hh_l0 f4 [256, 64]
-0.068796076 -0.0148706185 0.059403922 -0.09864232 0.0055235676 -0.02738136 0.03171164 0.17100985
-0.082563065 -0.1951355 -0.08823065 0.060221437 0.066565454 -0.029138071 0.038511343 -0.09849253
0.03729853 -0.037896935 -0.12699288 -0.14333768 -0.12856214 0.121534735 0.11124412 -0.10195016
-0.100653715 0.019228455 0.08584085 0.07310589 -0.058882788 -0.11179166 0.004506028 -0.08221446
-0.038578946 -0.098563 -0.025921749 0.067787506 0.08004228 0.111720785 -0.02648962 0.08923842
0.15089191 -0.10514237 -0.1929633 -0.07193581 -0.01792956 -0.18000783 0.07218124 0.08606097
0.022894396 0.054694872 0.11343807 0.06686679 0.034938976 -0.101865634 0.1290432 -0.119897984
-0.028298032 0.03781498 0.12289096 0.051701948 0.07591361 -0.11055643 0.12855567 0.20470028
0.022926155 0.093959816 0.019222086 -0.03957704 -0.21055564 0.010706115 0.095146224 0.1203532
-0.088712364 0.034118574 -0.06693709 0.022856468 -0.011147404 -0.078349784 0.10053633 -0.101490416
0.037225906 0.18994878 0.025372928 -0.07239777 -0.075200215 0.050675344 0.11048184 -0.08751425
-0.01696506 -0.100076355 0.063012615 -0.0004503801 0.037958547 -0.17087089 -0.028509082 -0.12548101
0.13988116 -0.03343291 -0.040654577 -0.006626618 0.029645095 0.045609254 -0.019990874 0.1746514
0.18796442 -0.054573037 -0.08566604 -0.1505395 0.0146531975 -0.16318035 0.08603189 0.07716326
-0.052240815 -0.14562324 0.025868613 0.13190474 0.02480852 0.07217455 -0.013316051 0.05463913
-0.060287394 0.03767738 0.23788661 -0.034070324 0.003935134 -0.011912893 0.13215445 0.03637885
-0.16757673 0.0463185 0.012602783 -0.08697308 -0.016814081 0.0061082668 0.08705661 0.10702263
0.042467125 -0.017128324 0.08730726 -0.089667015 0.12532705 -0.08913072 -0.06403996 -0.14161837
0.042705465 0.18735301 0.014611144 -0.22611347 -0.021891968 0.07953401 0.11816302 -0.020489573
-0.10113737 -0.04070023 0.024121955 0.054960333 -0.0423361 -0.091508985 -0.117839955 0.11832614
0.039286293 -0.1057406 -0.08202785 -0.0036010991 0.10567427 0.13329421 -0.008611928 -0.09005038
-0.032876216 -0.08920358 -0.0096666 -0.12748139 -0.027077377 -0.08564895 -0.07325601 -0.018412994
-0.08726678 -0.047383852 0.029704094 0.05103103 0.12382964 -0.028590297 0.056407247 0.015572002
0.0023712805 -0.01752278 0.113362774 0.0735208 -0.08136589 -0.04356965 0.06794216 0.058409818
-0.08806865 -0.031320993 -0.036346514 -0.07274012 -0.008285522 -0.08785477 0.010775045 0.028642925
0.018819682 0.024504356 -0.0055641313 0.07633841 0.21430717 -0.057646856 -0.061533023 -0.12238309
0.07474789 0.14728303 -0.07163391 0.02138108 0.114082135 0.13235165 0.099711895 -0.053448547
0.009332088 -0.17422032 -0.044768505 0.10019358 0.1417767 -0.03438456 -0.16627824 -0.0146300765
-0.0038032131 0.038424578 -0.13951236 -0.03224725 0.14850903 0.16281977 -0.018481439 0.13379647
0.13059802 -0.030607304 0.03712461 0.05149921 0.18043408 -0.05220705 -0.08826467 -0.045108788
-0.092446 -0.13600874 0.1659667 0.19181028 0.13120815 0.02760836 -0.046268933 -0.0819915
0.034552887 -0.07482059 0.1812551 -0.0708441 -0.12218827 -0.09916975 -0.00042145516 0.027709961
00000000: f5e4 8cbd e5a3 73bc 8751 733d fc04 cabd
00000010: 0bff b43b e04e e0bc 11e4 013d 351d 2f3e
00000020: d316 a9bd 9ad1 47be 45b2 b4bd c1aa 763d
00000030: 7853 883d f7b2 eebc 12be 1d3d 74b6 c9bd
00000040: 58c6 183d d139 1bbd 6c0a 02be 1dc7 12be
00000050: cba5 03be 34e7 f83d f5d3 e33d 3fcb d0bd
00000060: 8923 cebd fe84 9d3c 54cd af3d 8ab8 953d
00000070: 142f 71bd 07f3 e4bd 4da7 933b 0e60 a8bd
00000080: f504 1ebd 66db c9bd d959 d4bc 2dd4 8a3d
00000090: 35ed a33d decd e43d c200 d9bc a2c2 b63d
000000a0: 6983 1a3e e254 d7bd 2c98 45be 1553 93bd
000000b0: 03e1 92bc f953 38be c2d3 933d bc40 b03d
000000c0: 078d bb3c bb07 603d 3852 e83d 75f1 883d
000000d0: 2c1c 0f3d ee9e d0bd e723 043e 138d f5bd
000000e0: 46d1 e7bc e1e3 1a3d 41ae fb3d 6cc5 533d
000000f0: 9878 9b3d 696b e2bd 19a4 033e f39c 513e
00000100: a2cf bb3c 016e c03d a377 9d3c 891b 22bd
00000110: e69b 57be b368 2f3c 06dc c23d bd7b f63d
00000120: d4ae b5bd ebbf 0b3d 5016 89bd 7d3d bb3c
00000130: 9aa3 36bc da75 a0bd fee5 cd3d 35da cfbd
00000140: 317a 183d ef81 423e e3da cf3c 4845 94bd
00000150: 9202 9abd f390 4f3d 4e44 e23d ac3a b3bd
00000160: 4ffa 8abc d5f4 ccbd c20c 813d fe20 ecb9
00000170: 6c7a 1b3d c7f8 2ebe e18b e9bc 187e 00be
00000180: 023d 0f3e f2f0 08bd 6a85 26bd 1a24 d9bb
00000190: 45da f23c c5d0 3a3d e7c3 a3bc d1d7 323e
000001a0: bf79 403e fa87 5fbd ad71 afbd 0727 1abe
000001b0: f713 703c c018 27be 7d31 b03d c507 9e3d
000001c0: 77fa 55bd 421e 15be 6aea d33c 0912 073e
000001d0: 3d3b cb3c 40d0 933d 912b 5abc 48cd 5f3d
000001e0: eaef 76bd 9953 1a3d 8c98 733e 538d 0bbd
000001f0: 4cf2 803b 4b2e 43bc 7f53 073e fd01 153d
00000200: 3c99 2bbe 78b8 3d3d e77b 4e3c f11e b2bd
00000210: afbd 89bc db27 c83b bc4a b23d ae2e db3d
00000220: 02f2 2d3d b350 8cbc 26ce b23d 57a3 b7bd
00000230: bc55 003e 2b8a b6bd 6227 83bd 6804 11be
00000240: edeb 2e3d 78d9 3f3e 9463 6f3c 4a8a 67be
00000250: c956 b3bc bae2 a23d 74ff f13d c0d9 a7bc
00000260: 1c21 cfbd 49b5 26bd 689b c53c 161e 613d
00000270: 9e68 2dbd 1069 bbbd 1356 f1bd fa54 f23d
00000280: aaea 203d 878e d8bd 38fe a7bd 6b00 6cbb
00000290: c06b d83d 477e 083e 0b19 0dbc 556c b8bd
000002a0: 36a9 06bd 5eb0 b6bd a960 1ebc 7b8a 02be
000002b0: 60d1 ddbc b768 afbd 3f07 96bd d9d6 96bc
000002c0: edb8 b2bd 9215 42bd 0056 f33c ea05 513d
000002d0: 659a fd3d 3336 eabc 490b 673d b621 7f3c
000002e0: 7c67 1b3b ef8b 8fbc be2a e83d 1392 963d
000002f0: 29a3 a6bd 1776 32bd 4225 8b3d 223f 6f3d
00000300: 565d b4bd 714a 00bd 15e0 14bd c6f8 94bd
00000310: 00c0 07bc 34ed b3bd d089 303c 91a4 ea3c
00000320: bc2b 9a3c 5cbd c83c 5153 b6bb 5057 9c3d
00000330: 5773 5b3e 1c1f 6cbd 0d0a 7cbd fca3 fabd
00000340: 6c15 993d 5dd1 163e cdb4 92bd 6027 af3c
00000350: e5a3 e93d 3187 073e c035 cc3d ddec 5abd
00000360: 9de5 183c d066 32be 2e5f 37bd 4b32 cd3d
00000370: e92d 113e d3d6 0cbd d844 2abe fdb2 6fbc
00000380: 543f 79bb 1763 1d3d 54dc 0ebe b115 04bd
00000390: c012 183e 3aba 263e 6366 97bc f101 093e
000003a0: 7dbb 053e 2bbc fabc fa0f 183d d6f0 523d
000003b0: b6c3 383e 0fd7 55bd 1bc4 b4bd fec3 38bd
000003c0: 5454 bdbd e045 0bbe 2df3 293e ea69 443e
000003d0: 6e5b 063e ed2a e23c 7e84 3dbd 29eb a7bd
000003e0: 5487 0d3d 8a3b 99bd f09a 393e b616 91bd
000003f0: d83d fabd 8319 cbbd c1f6 dcb9 0000 e33c

lstm.bias_ih_l0 f4 [256]
-0.044876404 0.20986314 -0.0623553 -0.02912353 0.095098406 -0.053716242 0.104299515 0.067712925
0.122270554 0.030849924 0.112612136 0.0978581 0.1854807 -0.034075662 0.05374481 0.154071
-0.057985704 0.17971106 0.10264919 0.18551663 0.16722848 0.04313402 -0.062679686 0.0608029
-0.036956597 0.1024518 0.19925751 0.078341395 0.122800276 0.007749078 0.07252027 0.00772347
0.026728095 0.1561473 -0.038692795 0.00606794 0.055433966 0.039597154 0.11012507 0.16302301
-0.015962008 0.0010459594 -0.003661951 0.06501203 0.08711405 0.10897787 -0.050365064 0.06629417
-0.014075035 0.07182289 0.070017986 0.14498258 0.11274576 0.1850367 0.015410393 0.05980254
0.1936887 0.0892796 0.09920489 0.060474895 -0.0031086786 0.06974859 0.068154454 0.058727995
-0.0511683 0.16529281 -0.06943915 0.12073739 -0.03273561 0.10609495 0.0055139395 -0.08844625
-0.07730962 -0.03571942 0.06899458 -0.021398863 0.029151488 -0.07271959 0.03988556 -0.03269788
-0.02608574 0.121603675 0.10870349 0.046332575 0.09722027 -0.016834334 -0.028434874 0.019545667
0.00047007014 0.13121758 0.010615105 -0.054897435 -0.032575306 0.1746445 0.11174436 0.085518576
0.09693098 -0.069482215 -0.06446907 0.0828764 0.014982595 0.08512566 0.10808703 0.13689008
0.044209834 0.12846155 0.021233683 0.02021815 0.07612001 0.15699594 -0.07298874 0.06295803
-0.10266323 -0.09002947 0.067620546 -0.035670448 0.11986587 -0.059949275 0.11762196 0.06996529
-0.06348697 0.028830348 0.0043414934 0.013898448 0.037597977 0.06617547 0.014728911 -0.047137104
-0.012755221 0.06717534 0.13647361 -0.003652135 0.13003078 0.053778384 -0.0073355855 -0.040439636
-0.11746205 -0.09634478 -0.06683528 -0.05706407 0.0932654 -0.017499447 -0.08725113 0.09557388
0.055171397 0.014844922 0.13486733 0.059835374 -0.06684087 0.111647725 0.1554726 0.06852148
-0.15141337 0.00787941 -0.10999958 -0.023175376 0.09057708 0.110276155 -0.09407557 -0.008230297
0.0044957404 -0.055387694 -0.032481175 0.09883096 -0.030931262 -0.10620166 0.09519485 0.15361676
0.15551162 -0.043047674 -0.09336018 -0.06365906 0.09392931 -0.1510431 -0.084523626 0.036532648
0.03710159 -0.037690215 0.07255989 0.042698354 -0.039101876 0.046657506 0.11262646 -0.0793255
-0.06744911 0.07609526 0.14196897 0.06461973 0.008067411 -0.07035815 0.040138815 0.01542968
0.0007319779 0.016283052 -0.03307267 0.12969966 0.20817287 0.19460253 -0.008749921 0.06506697
-0.035889875 -0.023478046 0.20131278 0.034740534 0.0936041 0.059288636 0.06358061 0.095922135
-0.016666988 0.12727173 0.17634909 0.08103599 0.08776475 0.17556371 0.14275248 0.05213568
-0.0514699 0.07788849 0.14955449 0.07579076 0.076438665 0.10610941 0.18624297 0.11770815
0.15975644 0.12891686 -0.038881727 0.12060864 0.07584468 0.19499993 -0.0013548353 0.1835864
0.12836674 0.15819351 0.023532605 0.1638611 0.07734711 0.15721436 0.11272027 0.022212058
0.009045468 0.20370513 -0.013683367 0.00094487076 0.016578358 0.051713776 -0.012572184 0.05508693
0.07462171 0.15576647 -0.012118133 0.030812195 0.047971662 0.16052715 0.019659743 -0.0014133481
00000000: 52d0 37bd 5de6 563e 4568 7fbd 7894 eebc
00000010: f4c2 c23d 9005 5cbd fc9a d53d 13ad 8a3d
00000020: fc68 fa3d fbb8 fc3c 31a1 e63d d469 c83d
00000030: a7ee 3d3e ec92 0bbd 8523 5c3d cac4 1d3e
00000040: 6b82 6dbd 2d06 383e bd39 d23d 12f8 3d3e
00000050: f13d 2b3e 4cad 303d 355e 80bd 760c 793d
00000060: cd5f 17bd 40d2 d13d 290a 4c3e 7471 a03d
00000070: b67e fb3d faeb fd3b 8285 943d 2a15 fd3b
00000080: e1f4 da3c 14e5 1f3e 567c 1ebd 92d5 c63b
00000090: ba0e 633d a030 223d 4189 e13d 81ef 263e
000000a0: c2c2 82bc 9318 893a 58fd 6fbb 0725 853d
000000b0: da68 b23d ca2f df3d 994b 4ebd 3dc5 873d
000000c0: fa9a 66bc e117 933d 9765 8f3d 5076 143e
000000d0: 40e7 e63d 437a 3d3e df7b 7c3c 82f3 743d
000000e0: 5556 463e 39d8 b63d ef2b cb3d 86b4 773d
000000f0: f9ba 4bbb 59d8 8e3d 9094 8b3d c48c 703d
00000100: da95 51bd 8542 293e 1d36 8ebd 2a45 f73d
00000110: c615 06bd 4f48 d93d 47ae b43b 4f23 b5bd
00000120: 8254 9ebd 874e 12bd 084d 8d3d ab4c afbc
00000130: 1acf ee3c 02ee 94bd 0a5f 233d 36ee 05bd
00000140: c3b1 d5bc 590b f93d ef9f de3d 3ac7 3d3d
00000150: 6c1b c73d 28e8 89bc 41f0 e8bc 3c1e a03c
00000160: bf73 f639 e75d 063e faea 2d3c 22dc 60bd
00000170: af6d 05bd 02d6 323e 3ada e43d 5d24 af3d
00000180: c083 c63d b14c 8ebd 5c08 84bd 1abb a93d
00000190: 8f79 753c 5d56 ae3d bc5c dd3d ea2c 0c3e
000001a0: 5f15 353d 6d8b 033e 43f2 ad3c 89a0 a53c
000001b0: cfe4 9b3d 8bc3 203e 1f7b 95bd 24f0 803d
000001c0: 1941 d2bd 5f61 b8bd a47c 8a3d 2d1b 12bd
000001d0: 3d7c f53d 5f8d 75bd c8e3 f03d f649 8f3d
000001e0: 7505 82bd 9f2d ec3c 1643 8e3b 51b6 633c
000001f0: 5600 1a3d 0187 873d 8851 713c d612 41bd
00000200: 46fb 50bc 3a93 893d bdbf 0b3e a858 6fbb
00000210: ca26 053e b946 5c3d 5a5f f0bb 08a4 25bd
00000220: f18f f0bd 6950 c5bd efe0 88bd 04bc 69bd
00000230: ee01 bf3d 005b 8fbc b8b0 b2bd 3dbc c33d
00000240: 67fb 613d 1e38 733c a91a 0a3e f015 753d
00000250: dee3 88bd 90a7 e43d 3634 1f3e fd54 8c3d
00000260: 1b0c 1bbe a418 013c 7647 e1bd 49da bdbc
00000270: 7a80 b93d 77d8 e13d b1aa c0bd 5ed8 06bc
00000280: 0151 933b 35de 62bd fb0a 05bd e367 ca3d
00000290: 8f63 fdbc 4280 d9bd 84f5 c23d b64d 1d3e
000002a0: 703e 1f3e c252 30bd 9f33 bfbd ae5f 82bd
000002b0: 035e c03d 0bab 1abe b91a adbd 42a3 153d
000002c0: d6f7 173d 0e61 1abd 489a 943d 78e4 2e3d
000002d0: 4a29 20bd f11b 3f3d b4a8 e63d 6875 a2bd
000002e0: c222 8abd d5d7 9b3d 5060 113e 5957 843d
000002f0: 2d2d 043c ef17 90bd 9968 243d c5cc 7c3c
00000300: 35e2 3f3a 0964 853c 3577 07bd fdcf 043e
00000310: 452b 553e e345 473e d45b 0fbc d541 853d
00000320: 4301 13bd 0855 c0bc f024 4e3e 174c 0e3d
00000330: 82b3 bf3d a4d8 723d 8d36 823d d372 c43d
00000340: 3589 88bc 8553 023e db94 343e 32f6 a53d
00000350: 01be b33d f9c6 333e b52d 123e 398c 553d
00000360: 1ad2 52bd 0084 9f3d d024 193e 3038 9b3d
00000370: e08b 9c3d e44f d93d 7ab6 3e3e f810 f13d
00000380: 3197 233e c802 043e 7242 1fbd aa01 f73d
00000390: 7554 9b3d 10ae 473e bb94 b1ba 13fe 3b3e
000003a0: 9272 033e 7bfd 213e 73c7 c03c 34cb 273e
000003b0: 2968 9e3d cdfc 203e e3d9 e63d 10f6 b53c
000003c0: 7133 143c 1498 503e 3330 60bc 34b1 773a
000003d0: 56cf 873c d3d1 533d 90fb 4dbc d5a2 613d
000003e0: 44d3 983d 3f81 1f3e 228b 46bc db69 fc3c
000003f0: ef7d 443d 3b61 243e 780d a13c 1840 b9ba

lstm.bias_hh_l0 f4 [256]
0.1511982 0.20683743 0.007854541 -0.08494054 0.029365035 0.007877022 0.12572496 0.024737155
0.0343318 0.18915734 0.024939531 0.03722025 0.11404846 -0.020880125 0.008861668 0.17119442
0.14141941 -0.005799962 -0.021433353 0.02912137 0.06832411 0.06335816 0.07705387 -0.037463386
0.06940815 0.16090025 0.20765525 0.10514062 0.09814619 0.16977504 0.05022232 0.18513827
0.063801885 0.07389589 0.010793824 0.015214018 0.13942564 0.123299114 0.13015735 0.062940486
-0.041285336 0.18117449 0.14182714 0.110042386 0.1699547 0.20689276 0.02610241 0.12687154
0.0631378 0.16148955 -0.015658025 -0.0636118 0.12237475 0.052185733 0.084395505 0.0020517719
-0.0058814483 0.07293685 -0.020862848 0.090961814 0.042580444 0.027316172 0.10626764 0.033006206
0.0769003 0.14455956 0.088492975 0.11607033 -0.035293367 0.14868827 -0.06966556 0.065910436
0.035445303 0.15661521 0.094147824 -0.116543844 0.024711743 -0.07564519 -0.007343631 0.13164131
0.0676292 0.024288544 -0.05190617 0.004993822 -0.0118309185 0.021488613 -0.060521483 0.108815536
0.061966445 0.08770563 0.08368433 0.036798004 0.049521 0.02834174 0.09201969 0.0047323015
0.12773676 0.14309017 0.1343848 0.058359753 -0.059997063 0.03013061 0.07469819 -0.071061894
-0.04146393 0.15172797 0.04196089 0.10032951 0.0089733405 0.08895793 0.015848013 -0.04102194
-0.035940588 0.038949966 0.02303009 0.08326273 0.06475745 -0.016303096 0.10240124 0.030120598
0.100137696 -0.03729548 -0.0016395545 -0.067489564 0.028538013 -0.08366978 0.14992796 0.089705706
-0.020289326 0.059878785 0.1396094 -0.13094161 0.06693684 -0.11052007 0.06840672 0.11313542
0.06847408 -0.04152558 0.037454676 -0.09029113 0.099050164 -0.14818871 -0.08287383 -0.05160391
0.023575993 0.050952427 -0.019127054 -0.023756867 0.05812716 0.07815071 0.07091431 -0.13012075
-0.10183963 0.09582577 -0.060848642 -0.020874904 0.079203546 0.031043263 -0.1115907 0.020377249
0.036796838 -0.0381941 -0.03011644 0.026985217 0.0020457462 -0.0742521 -0.08287121 -0.04923068
0.15606363 0.085070774 0.019192735 0.008731355 0.120803 0.07049916 0.089492775 -0.02512986
0.058374703 -0.07658681 0.08811715 0.135339 0.074236326 -0.0963495 0.051401846 0.07528614
0.002754374 0.07341851 0.07339151 0.10563813 0.079759054 -0.0014088033 -0.08555971 0.14388712
0.009689005 0.01002421 0.14766514 0.03578574 -0.027319089 0.1933937 0.06825344 0.12722343
0.15574253 -0.030352212 -0.0112900445 0.0871714 0.036060344 -0.046310134 0.03320504 0.1878377
0.12698385 0.12966405 0.1813643 0.1836718 0.14711237 0.05976983 0.05611067 0.19293146
0.07315551 0.098672956 0.19846657 0.152199 0.078515045 0.16745862 0.19383383 0.085723534
0.070892245 0.12587506 0.17465118 0.021008907 -0.023323024 0.04492274 0.095431864 -0.02900256
0.008824666 0.11293447 0.2091649 0.15347937 0.15250902 0.16274415 0.106271766 0.21083622
0.09168549 0.07538813 0.09920336 0.056511287 0.10276584 0.016422272 0.18239307 0.17625463
-0.011201572 0.10716667 -0.021814046 0.2004208 0.12855187 0.108140156 0.20824587 0.16615577
00000000: b3d3 1a3e 31cd 533e 55b0 003c 4ef5 adbd
00000010: f18e f03c a00e 013c 0bbe 003e 93a5 ca3c
00000020: 809f 0c3d 76b2 413e fd4d cc3c 4374 183d
00000030: 3d92 e93d cc0c abbc 8830 113c 974d 2f3e
00000040: 40d0 103e 9c0d bebb 0095 afbc f08f ee3c
00000050: 83ed 8b3d ecc1 813d 6bce 9d3d 3573 19bd
00000060: dc25 8e3d 09c3 243e 94a3 543e f753 d73d
00000070: df00 c93d 82d9 2d3e ebb5 4d3d e394 3d3e
00000080: 90aa 823d ba56 973d 94d8 303c 3744 793c
00000090: 98c5 0e3e 3f84 fc3d f847 053e f1e6 803d
000000a0: d01a 29bd ce85 393e 223b 113e e75d e13d
000000b0: 9b08 2e3e b2db 533e b9d4 d53c 9dea 013e
000000c0: 644e 813d 845d 253e 4245 80bc e746 82bd
000000d0: 9d9f fa3d b5c0 553d 8dd7 ac3d 0577 063b
000000e0: 2ab9 c0bb ea5f 953d 90e8 aabc 304a ba3d
000000f0: d568 2e3d 2ac6 df3c d9a2 d93d 8431 073d
00000100: e87d 9d3d 6c07 143e ce3b b53d 48b6 ed3d
00000110: c78f 10bd bd41 183e d1ac 8ebd 0dfc 863d
00000120: 182f 113d bd5f 203e 93d0 c03d 8aae eebd
00000130: 4870 ca3c deeb 9abd d7a2 f0bb fbcc 063e
00000140: 2e81 8a3d c5f8 c63c 909b 54bd 37a3 a33b
00000150: 78d6 41bc e308 b03c 60e5 77bd aeda de3d
00000160: 87d0 7d3d 029f b33d b162 ab3d 81b9 163d
00000170: 88d6 4a3d f02c e83c d274 bc3d 6c11 9b3b
00000180: 6dcd 023e 3b86 123e 2b9c 093e a30a 6f3d
00000190: 7bbf 75bd 78d4 f63c 5dfb 983d e688 91bd
000001a0: 15d6 29bd 945e 1b3e 2fdf 2b3d 8f79 cd3d
000001b0: eb04 133c 932f b63d b1d3 813c 9f06 28bd
000001c0: 7036 13bd 008a 1f3d 99a9 bc3c a685 aa3d
000001d0: 8e9f 843d 128e 85bc beb7 d13d 79bf f63c
000001e0: fe14 cd3d 25c3 18bd 52e6 d6ba f837 8abd
000001f0: 8dc8 e93c 105b abbd b786 193e a0b7 b73d
00000200: cd35 a6bc 7543 753d c4f5 0e3e 8f15 06be
00000210: 2f16 893d 5958 e2bd d318 8c3d 8bb3 e73d
00000220: 233c 8c3d ba16 2abd 136a 193d 8eea b8bd
00000230: d0da ca3d c8be 17be c1b9 a9bd 9f5e 53bd
00000240: 7122 c13c 7eb3 503d 57b0 9cbc c39d c2bc
00000250: bf16 6e3d 7b0d a03d 863b 913d 603e 05be
00000260: 4c91 d0bd 4d40 c43d 6d3c 79bd d901 abbc
00000270: 7835 a23d 714e fe3c aa89 e4bd 30ee a63c
00000280: 48b8 163d 6b71 1cbd c1b6 f6bc 1a10 dd3c
00000290: ed11 063b 7c11 98bd 62b8 a9bd 1ca6 49bd
000002a0: 25cf 1f3e 9639 ae3d 153a 9d3c f50d 0f3c
000002b0: 9067 f73d dd61 903d fd47 b73d 23dd cdbc
000002c0: 501a 6f3d 8cd9 9cbd c476 b43d 4f96 0a3e
000002d0: 3709 983d e352 c5bd be8a 523d 9f2f 9a3d
000002e0: ba82 343b 725c 963d 4a4e 963d ce58 d83d
000002f0: b758 a33d 98a7 b8ba ee39 afbd 2557 133e
00000300: a2be 1e3c 963c 243c 8835 173e 1194 123d
00000310: 48cc dfbc 0009 463e 76c8 8b3d dc46 023e
00000320: f87a 1f3e 34a5 f8bc e1f9 38bc eb86 b23d
00000330: 03b4 133d b2af 3dbd 0202 083d 8758 403e
00000340: 0e08 023e a7c6 043e 90b7 393e 7614 3c3e
00000350: a0a4 163e 36d1 743d 4dd4 653d d38f 453e
00000360: 8ed2 953d 0c15 ca3d d23a 4b3e 0eda 1b3e
00000370: 7fcc a03d 467a 2b3e 607c 463e d28f af3d
00000380: f42f 913d 64e5 003e c2d7 323e df1a ac3c
00000390: ed0f bfbc e800 383d c871 c33d c796 edbc
000003a0: 5595 103c 304a e73d 532f 563e b229 1d3e
000003b0: 532b 1c3e 67a6 263e 03a5 d93d 73e5 573e
000003c0: 9ac5 bb3d 1865 9a3d 222b cb3d 6178 673d
000003d0: e676 d23d 0088 863c 40c5 3a3e 187c 343e
000003e0: cc86 37bc 337a db3d 5fb3 b2bc 1c3b 4d3e
000003f0: 1aa3 033e 9678 dd3d 683e 553e bd24 2a3e

lstm.weight_ih_l0_reverse f4 [256, 100]
0.041646115 -0.027482077 -0.021215059 0.07735708 0.055681404 -0.051567636 0.14101651 0.08836384
0.03781955 -0.0069152587 0.0073124752 -0.10233633 -0.11058909 0.026506882 0.038000617 -0.13057998
0.12709795 -0.07353661 -0.14243472 0.10544589 -0.09652949 0.00019752565 -0.0039856983 0.07510266
4.078102e-05 -0.014463998 -0.091126405 -0.11505579 -0.039138675 0.011287898 0.008854952 -0.06880222
-0.013027868 -0.13444254 -0.16221403 0.060812443 -0.07730007 0.043359052 -0.14061765 0.119879164
-0.14671035 -0.09423941 0.08555593 0.050440952 -0.16467348 0.055916533 -0.0671505 0.031850304
-0.034969993 0.08517344 0.03739651 -0.024516366 0.17582372 0.04238834 0.048060905 0.10677605
0.024781939 -0.03222026 0.055176347 -0.107478276 -0.04338884 -0.07209783 0.057511654 -0.16353333
-0.05394445 0.06764501 -0.041369405 0.098366894 0.009928319 0.06358185 0.05751635 -0.13157926
0.071655 -0.10436354 0.009607311 -0.023770805 0.021789417 -0.023690743 0.062777914 -0.11507592
0.06618233 -0.096616656 0.10314389 0.10266593 0.08065212 0.15780449 0.019736765 -0.09752033
0.1745518 -0.07922326 -0.124422684 0.0471165 -0.026695732 0.025858654 0.10224561 -0.031414762
0.00104396 0.032476015 0.009428234 -0.12264373 -0.08918039 0.17073107 0.09630189 0.08814812
-0.064434886 0.0051132427 0.07001232 -0.040206198 0.04505705 0.0033247096 -0.038840283 -0.09633194
-0.07132842 0.024123007 0.05701785 0.009642623 -0.037989758 0.009903185 -0.09387172 0.07333147
-0.024570942 -0.022004027 0.15332335 -0.12688182 -0.105038546 0.07821751 -0.060101863 -0.09609428
-0.03321497 0.059842333 0.0111497175 -0.004872851 0.04800837 0.048140347 0.05953543 -0.068735674
-0.046292122 -0.05613993 -0.12533464 0.12903175 -0.1026889 0.07819019 0.15956227 -0.13419405
0.016379371 0.11273795 -0.16447768 0.025302572 0.10328637 -0.031548455 -0.101634964 0.02873674
0.13887554 -0.104121365 -0.016163925 -0.09809392 -0.06006536 -0.107012056 -0.13717392 -0.04150818
0.034895264 0.11289821 -0.06498296 -0.07752958 -0.15566453 0.04824022 0.034563534 -0.070175864
-0.0010466402 -0.031431887 -0.07128344 0.009937065 -0.07212223 -0.030037502 -0.11485182 0.09309848
0.010306383 -0.017085873 -1.5576385e-05 -0.055541523 0.030960051 0.09413694 -0.09915421 -0.00044366514
0.046644893 0.031752784 -0.10608916 -0.018141588 -0.09371241 0.09576589 -0.005330669 -0.093173295
0.13512209 -0.002241113 0.090008676 0.1357161 0.09458541 -0.01686 -0.02272749 -0.01232176
0.06650323 0.09281329 0.011838446 -0.0695029 -0.08744636 -0.06675437 0.026718698 0.009624952
-0.13059923 0.1003414 0.011908704 0.04236666 -0.0033677595 0.025838021 0.13731004 -0.05358661
-0.019091466 0.090057425 -0.041711275 0.14198612 0.078507386 0.018691935 -0.012900122 0.052124552
0.091380544 0.09043688 -0.061402548 -0.09902379 -0.15025403 0.07123396 -0.07490495 -0.016958661
0.029575974 0.016473046 -0.06819857 0.0571175 -0.06500031 -0.11130501 -0.10806143 -0.06266043
-0.033714745 -0.029914467 -0.0003444373 -0.06192504 -0.08725209 0.07851972 0.052177902 0.019597655
-0.054800708 -0.13513212 -0.050482664 -0.027635833 -0.05296996 0.029571414 0.13305527 -0.055060286
00000000: 1e95 2a3d 1822 e1bc 34cb adbc 646d 9e3d
00000010: 2f12 643d 9638 53bd a266 103e 1af8 b43d
00000020: ace8 1a3d 6599 e2bb 7d9d ef3b b695 d1bd
00000030: 887c e2bd f624 d93c 89a6 1b3d c2b6 05be
00000040: f725 023e 5d9a 96bd 68da 11be 04f4 d73d
00000050: 41b1 c5bd e31e 4f39 769a 82bb 6ccf 993d
00000060: 490c 2b38 68fa 6cbc 7ba0 babd 5fa2 ebbd
00000070: e04f 20bd e0f0 383c 5c14 113c 2ee8 8cbd
00000080: d772 55bc 4eab 09be 6f1b 26be 7816 793d
00000090: 804f 9ebd 4399 313d 13fe 0fbe 3583 f53d
000000a0: 3d3b 16be 9700 c1bd f337 af3d 2c9b 4e3d
000000b0: 2aa0 28be bc08 653d 3486 89bd 7775 023d
000000c0: b23c 0fbd 6a6f ae3d 152d 193d 8cd6 c8bc
000000d0: 220b 343e 659f 2d3d 83db 443d 67ad da3d
000000e0: 7e03 cb3c 64f9 03bd 9800 623d 921d dcbd
000000f0: 7fb8 31bd 07a8 93bd 5791 6b3d 4875 27be
00000100: dbf4 5cbd 7889 8a3d f772 29bd 9574 c93d
00000110: 63aa 223c 3337 823d 4496 6b3d b7bc 06be
00000120: dbbf 923d 8dbc d5bd fc67 1d3c feba c2bc
00000130: b87f b23c 1713 c2bc b591 803d edac ebbd
00000140: 9a8a 873d f4de c5bd 1b3d d33d 8442 d23d
00000150: f02c a53d 8097 213e ffae a13c bdb8 c7bd
00000160: b5bd 323e ce3f a2bd 52d1 febd 3bfd 403d
00000170: 02b1 dabc 87d5 d33c 2566 d13d c4ac 00bd
00000180: 7cd5 883a 9205 053d e178 1a3c a32c fbbd
00000190: 35a4 b6bd 20d4 2e3e ed39 c53d 0087 b43d
000001a0: 70f6 83bd fd8c a73b 9f62 8f3d 41af 24bd
000001b0: be8d 383d 5fe3 593b fd16 1fbd ae49 c5bd
000001c0: a214 92bd 9d9d c53c 8d8b 693d 18fc 1d3c
000001d0: 269b 1bbd f840 223c d13f c0bd cf2e 963d
000001e0: 0049 c9bc ca41 b4bc cc00 1d3e 4fed 01be
000001f0: 731e d7bd 8030 a03d 5f2d 76bd 14cd c4bd
00000200: 6c0c 08bd 3c1d 753d 4ead 363c 70ac 9fbb
00000210: 6da4 443d d02e 453d 6cdb 733d 4ac5 8cbd
00000220: cf9c 3dbd fcf2 65bd b957 00be e620 043e
00000230: 8f4e d2bd 2e22 a03d 4b64 233e 2a6a 09be
00000240: 082e 863c 28e3 e63d d66c 28be 5747 cf3c
00000250: ce87 d33d f438 01bd fe25 d0bd 5069 eb3c
00000260: 6435 0e3e 953d d5bd 356a 84bc 77e5 c8bd
00000270: 1807 76bd 2329 dbbd 5277 0cbe 7b04 2abd
00000280: 56ee 0e3d 2d37 e73d c915 85bd d4c7 9ebd
00000290: 8666 1fbe 8997 453d 7e92 0d3d 5db8 8fbd
000002a0: 6b2f 89ba b9be 00bd 0dfd 91bd 12cf 223c
000002b0: d2b4 93bd 3511 f6bc 6e37 ebbd 6aaa be3d
000002c0: 1adc 283c acf7 8bbc 08aa 82b7 827f 63bd
000002d0: ef9f fd3c deca c03d 5d11 cbbd ba9b e8b9
000002e0: b70e 3f3d 350f 023d 4645 d9bd ab9d 94bc
000002f0: 4bec bfbd e820 c43d e5ac aebb a4d1 bebd
00000300: 725d 0a3e a3df 12bb 7856 b83d 29f9 0a3e
00000310: ffb5 c13d fc1d 8abc 002f babc 35e1 49bc
00000320: d832 883d e514 be3d 0bf6 413c 8957 8ebd
00000330: 1417 b3bd 84b6 88bd 2ce1 da3c fab1 1d3c
00000340: cebb 05be cb7f cd3d ba1c 433c aa88 2d3d
00000350: a1b5 5cbb 42aa d33c 019b 0c3e a27d 5bbd
00000360: b565 9cbc 0770 b83d 71d9 2abd cf64 113e
00000370: 7bc8 a03d d41f 993c 095b 53bc 8e80 553d
00000380: b925 bb3d f936 b93d 3d81 7bbd fccc cabd
00000390: 31dc 19be 1ce3 913d c467 99bd e4ec 8abc
000003a0: 5049 f23c 7bf2 863c b1ab 8bbd 0af4 693d
000003b0: e21e 85bd e2f3 e3bd 504f ddbd 1d54 80bd
000003c0: 7918 0abd 2f0f f5bc 9895 b4b9 1ca5 7dbd
000003d0: 39b1 b2bd f2ce a03d 7fb8 553d 438b a03c
000003e0: b576 60bd 1360 0abe e9c6 4ebd 8b64 e2bc
000003f0: 07f7 58bd c03f f23c a43f 083e e586 61bd

lstm.weight_hh_l0_reverse f4 [256, 64]
-0.068312146 0.077352665 -0.011207267 -0.071430854 0.051790338 0.08785653 -0.030864462 0.10249785
-0.13249733 0.072021194 -0.083460614 -0.10998258 0.14691521 0.03653592 -0.019911554 0.088886805
0.05919904 -0.04520524 0.115669064 0.092799604 0.13249414 0.087001905 -0.09527386 0.06614745
-0.074039005 0.020428587 -0.006024488 -0.08187909 0.06170462 -0.09510593 -0.087347955 0.070261754
0.07836727 0.06308808 -0.10760727 0.03924814 -0.02274816 -0.011266257 -0.03290932 -0.101656504
-0.027447982 -0.010992533 -0.10188097 0.015036513 0.03505899 0.048967145 -0.008288887 -0.0021203654
-0.14776441 0.030988576 -0.03762757 0.11587552 0.060167726 -0.051818438 0.06767856 -0.0031297386
-0.14535291 0.07749563 -0.12044966 0.0055535985 0.064274356 -0.0017099996 -0.0345466 0.07969613
-0.06622091 0.015090469 -0.098051414 0.052708838 0.20199569 0.029080637 0.17651221 0.106868915
0.087733716 0.14051104 0.05252537 -0.1421709 -0.10378745 -0.037844285 0.021679653 0.03045467
-0.088299885 -0.0858116 0.01934369 -0.006236161 0.06342721 -0.045731526 0.021014407 0.15599015
-0.13673614 0.019373387 -0.056465384 0.034199882 -0.10475251 0.03971198 0.08905859 -0.04478013
0.045924414 0.1664685 0.16089176 -0.016108112 -0.034519028 -0.18616761 0.039020598 0.0037533338
-0.0070713344 0.018336402 0.032707967 -0.020608025 -0.04090712 0.053709704 0.15783115 0.08185424
-0.027942192 -0.15037763 0.19283353 0.13954726 0.054903727 -0.0030138318 -0.031154662 -0.0652962
0.026813596 0.04620651 -0.114351146 -0.026335586 -0.008220602 0.13338532 0.089158095 -0.048566185
-0.06577289 0.170699 -0.037109133 0.13656352 0.07163788 0.044518236 0.10531557 0.13699412
-0.07514993 -0.11424487 -0.0099581815 0.069266506 0.12004611 0.0055522155 0.005625115 0.080710694
-0.06313402 -0.16579157 0.16373517 0.008102723 0.038290877 -0.120576724 -0.044050086 -0.027177716
0.06045256 0.054253574 -0.1822602 -0.18815406 -0.16357535 -0.10586096 0.053186633 -0.022168605
0.010422296 0.043210346 0.032414902 0.036146946 -0.051531456 -0.18677273 0.019679334 0.058625862
0.012453145 -0.054341625 -0.095100656 0.122142255 0.05391797 -0.1724799 -0.13764189 0.10357551
-0.0989405 -0.02278377 0.16826804 0.15055417 0.12579149 0.033719487 0.00056387467 -0.1614112
0.025788734 0.10094262 -0.056062445 0.03843605 0.19749555 0.0665184 -0.029710393 -0.0060865353
-0.10254021 0.13309363 -0.15040138 -0.06500069 0.023366809 0.04617286 0.24919209 0.021692734
-0.09983476 0.11594461 0.11606668 -0.012658263 0.0586492 0.13794917 0.058048435 -0.11904157
0.055459116 -0.022499636 -0.018853996 0.04133143 -0.15334827 0.05628601 -0.00452834 0.064618595
-0.16120014 0.14045389 -0.12408755 -0.045148306 -0.055910032 0.15712091 0.08388311 0.06456536
0.015254406 0.12513916 0.063737735 0.05837785 -0.24972667 -0.079137616 0.04777457 -0.11616629
-0.16333511 -0.11104942 -0.08996717 0.15283851 0.2022194 0.023448687 0.1844387 0.22804788
-0.19453032 -0.13862883 0.06455338 -0.06302924 -0.09633652 0.09546868 -0.14729178 0.05970015
0.053231057 0.12461297 -0.18231857 -0.1155054 0.13567384 0.063677974 -0.023358088 -0.05405011
00000000: 3de7 8bbd 136b 9e3d af9e 37bc 574a 92bd
00000010: 1b22 543d 20ee b33d 78d7 fcbc 65ea d13d
00000020: 61ad 07be d97f 933d 66ed aabd 8c3e e1bd
00000030: f170 163e b0a6 153d 8e1d a3bc 490a b63d
00000040: b17a 723d 2129 39bd e7e3 ec3d b80d be3d
00000050: 8bac 073e 0e2e b23d f11e c3bd 5078 873d
00000060: c3a1 97bd da59 a73c 1169 c5bb 39b0 a7bd
00000070: fcbd 7c3d e6c6 c2bd 7ce3 b2bd 65e5 8f3d
00000080: 057f a03d 5334 813d 3361 dcbd a8c2 203d
00000090: 595a babc 1b96 38bc eccb 06bd 4931 d0bd
000000a0: 97da e0bc 061a 34bc f8a6 d0bd b55b 763c
000000b0: 049a 0f3d c691 483d 1dce 07bc d4f5 0abb
000000c0: 8e4f 17be c1db fd3c 5e1f 1abd 2550 ed3d
000000d0: 6f72 763d 923f 54bd 0f9b 8a3d 4d1c 4dbb
000000e0: 65d7 14be 07b6 9e3d 50ae f6bd f6fa b53b
000000f0: 46a2 833d 1122 e0ba bc80 0dbd b937 a33d
00000100: d49e 87bd 043e 773c 2ecf c8bd 39e5 573d
00000110: f5d7 4e3e 843a ee3c 9ebf 343e 17de da3d
00000120: bcad b33d 20e2 0f3e d824 573d 4095 11be
00000130: 848e d4bd 9c02 1bbd 8799 b13c 127c f93c
00000140: 92d6 b4bd febd afbd a876 9e3c b658 ccbb
00000150: 20e6 813d fb50 3bbd 6826 ac3c e2bb 1f3e
00000160: 8f04 0cbe f0b4 9e3c 3f48 67bd 2d15 0c3d
00000170: 7c88 d6bd 07a9 223d 5a64 b63d 5f6b 37bd
00000180: 3d1b 3c3d b876 2a3e cfc0 243e 29f5 83bc
00000190: d363 0dbd b9a2 3ebe 10d4 1f3d 7efa 753b
000001a0: a7b6 e7bb 3936 963c caf8 053d 29d2 a8bc
000001b0: 398e 27bd b5fe 5b3d 7d9e 213e 32a3 a73d
000001c0: 06e7 e4bc 98fc 19be 2776 453e 7ae5 0e3e
000001d0: bbe2 603d b583 45bb 1038 ffbc 04ba 85bd
000001e0: 30a8 db3c 0a43 3d3d ef30 eabd babd d7bc
000001f0: b4af 06bc 2996 083e 8598 b63d 56ed 46bd
00000200: f0b3 86bd b8cb 2e3e bfff 17bd 4fd7 0b3e
00000210: e1b6 923d c158 363d b1af d73d 3048 0c3e
00000220: 35e8 99bd 37f9 e9bd a427 23bc 99db 8d3d
00000230: bcda f53d 5cef b53b e252 b83b a64b a53d
00000240: 694c 81bd 44c5 29be 31aa 273e 49c1 043c
00000250: e5d6 1c3d eef0 f6bd dd6d 34bd cda3 debc
00000260: 1b9d 773d ff38 5e3d 6ba2 3abe 75ab 40be
00000270: 4c80 27be a2cd d8bd 3ada 593d ef9a b5bc
00000280: 47c2 2a3c 55fd 303d 7dc5 043d d20e 143d
00000290: a612 53bd 5a41 3fbe 8e36 a13c ac21 703d
000002a0: 4708 4c3c 5395 5ebd 22c4 c2bd b825 fa3d
000002b0: 17d9 5c3d 929e 30be fff1 0cbe 661f d43d
000002c0: 51a1 cabd 07a5 babc 754e 2c3e df2a 1a3e
000002d0: 7ccf 003e 721d 0a3d fdd0 133a fa48 25be
000002e0: e542 d33c 01bb ce3d bca1 65bd 1f6f 1d3d
000002f0: 463c 4a3e cd3a 883d 3663 f3bc 8f71 c7bb
00000300: 9a00 d2bd b249 083e d202 1abe 151f 85bd
00000310: c06b bf3c c11f 3d3d 362c 7f3e f6b4 b13c
00000320: 2b76 ccbd 5e74 ed3d 5eb4 ed3d 9a64 4fbc
00000330: 253a 703d 8c42 0d3e 32c4 6d3d 11cc f3bd
00000340: 1929 633d 2851 b8bc b273 9abc 254b 293d
00000350: 5407 1dbe 298c 663d 7862 94bb c156 843d
00000360: a611 25be 25d3 0f3e 9d21 febd 6eed 38bd
00000370: eb01 65bd 4ee4 203e e8ca ab3d d83a 843d
00000380: 9eed 793c 7b24 003e ee88 823d 9d1d 6f3d
00000390: 59b8 7fbe e712 a2bd 44af 433d 98e8 edbd
000003a0: 5241 27be e16d e3bd b540 b8bd b381 1c3e
000003b0: 9a12 4f3e 7617 c03c 80dd 3c3e 6285 693e
000003c0: f532 47be b7f4 0dbe 9034 843d 7915 81bd
000003d0: 154c c5bd 1585 c33d a8d3 16be 2588 743d
000003e0: cf08 5a3d 1635 ff3d b8b1 3abe 188e ecbd
000003f0: 15ee 0a3e 9969 823d 7659 bfbc a663 5dbd

lstm.bias_ih_l0_reverse f4 [256]
0.072535545 0.22281735 0.07377443 0.12107016 -0.0409842 -0.026235979 -0.0639499 0.040510062
-0.013568144 0.029977562 -0.03690447 0.0134302415 0.06247854 0.16635913 -0.0007485371 0.04463377
0.10412951 0.13457885 -0.019819338 0.13574259 0.1331392 -0.028780472 -0.0027057813 0.13064447
0.0038243667 0.047571767 0.14826885 0.049809944 0.017016606 0.07348383 0.014688708 -0.033871297
0.1948434 0.08648273 0.14535618 -0.029671175 0.10531573 -0.009545715 0.10954979 0.18083581
0.03426802 0.052819356 0.1123498 0.2144521 0.033698253 -0.0011164377 0.18009588 0.079671316
-0.049436636 -0.056405492 0.095038466 0.053072333 0.04317131 -0.03430141 0.0890448 0.13327558
0.07037203 0.07722137 0.09654551 0.06286444 0.111232705 -0.0030427454 0.0049883546 -0.014435292
0.12386943 0.06554318 -0.047273546 0.02900324 -0.044829212 0.13491118 0.13276303 0.06629422
-0.00347331 0.024052557 0.17497206 -0.057629745 -0.116588205 0.059452187 -0.092329316 0.07983235
-0.01786838 0.105322234 0.07286591 0.075750984 0.011485061 0.17371222 -0.032851722 -0.04864869
0.018677052 0.18169898 -0.01271599 -0.008757249 0.16310742 -0.055606335 -0.0046859095 0.13236381
-0.04876838 0.024352625 -0.06321289 0.13510637 -0.014994074 0.05792839 -0.023851784 -0.088154994
0.015986223 0.15631121 0.11123059 -0.06383167 0.0052198065 -0.054066446 0.035842728 0.006791921
0.013041643 0.010759828 0.085501514 -0.006704017 0.13245918 -0.054508973 -0.09218388 -0.030045243
0.13056831 0.15583844 0.09581618 -0.016536528 0.17055897 -0.06511481 -0.044356994 0.030122632
-0.08478243 -0.10052874 -0.060335148 0.0072493157 0.08076653 0.04610386 0.012139951 0.023851918
-0.13749908 0.13049036 -0.023778258 -0.14768848 0.062233258 0.08711429 0.075103804 -0.08009394
-0.06842106 -0.04726589 -0.06895064 0.056045122 0.0025205917 -0.040788297 0.020041382 -0.057083245
-0.04669691 0.064566426 0.026947625 -0.12508282 -0.101574525 0.14284404 0.09613021 0.11834844
-0.03809742 0.09013729 0.110564634 -0.086925484 0.09283673 -0.06492625 0.15118119 -0.06891442
-0.039910596 -0.040517814 0.036117066 0.0025223228 0.09501699 0.04292535 -0.081127614 0.08739584
-0.101225376 -0.08639995 -0.0813734 0.11059093 -0.031161878 0.12162577 0.037593257 -0.06749259
-0.06128351 0.0067583728 -0.0939006 0.017671816 0.08064644 -0.15128696 -0.022031112 0.087112695
0.045338765 0.15912108 0.13205597 0.1288992 -0.018784167 0.17544605 -0.053309582 0.09436125
-0.009283623 -0.03544696 0.013794721 0.07596039 0.16365722 -0.06612392 0.0042466214 0.023926407
0.0560254 -0.04797908 -0.03463649 -0.040059153 -0.020160573 0.22070126 0.19526544 0.11795991
0.04343122 0.18903792 0.15271594 0.05865025 -0.024745915 0.0837381 0.11371428 0.10975858
0.115940176 0.04544188 -0.0051685115 0.0549362 0.08561265 0.07852643 0.12184273 0.17744675
0.0115628615 -0.035862852 0.071327835 0.016128061 -0.028554216 0.031537354 0.124474466 0.013172494
0.09875352 0.056289267 0.05245952 0.17638491 0.026797593 0.011910158 0.10101092 -0.0077153947
0.16412108 -0.07023904 0.07529729 -0.042087045 0.17021483 0.07231189 -0.003371408 -0.028915748
00000000: 848d 943d 3b2a 643e 0c17 973d a2f3 f73d
00000010: 0cdf 27bd d6ec d6bc 2af8 82bd e1ed 253d
00000020: ec4c 5ebc 8193 f53c 2429 17bd 840a 5c3c
00000030: 7fe9 7f3d 0c5a 2a3e 7939 44ba e6d1 363d
00000040: da41 d53d 0acf 093e 2a5c a2bc 1b00 0b3e
00000050: a455 083e 06c5 ebbc 7a53 31bb aac7 053e
00000060: 3aa2 7a3b 9dda 423d cad3 173e 8305 4c3d
00000070: 6966 8b3c b17e 963d e8a8 703c a1bc 0abd
00000080: 0785 473e dc1d b13d 40d8 143e f710 f3bc
00000090: c6af d73d a165 1cbc a45b e03d 062d 393e
000000a0: a05c 0c3d 1c59 583d a717 e63d 5599 5b3e
000000b0: 2e07 0a3d 6f55 92ba 0e6b 383e b72a a33d
000000c0: 127e 4abd 7209 67bd 87a3 c23d 6062 593d
000000d0: 66d4 303d a37f 0cbd 1f5d b63d 6579 083e
000000e0: 361f 903d 3d26 9e3d a7b9 c53d 12bf 803d
000000f0: f9cd e33d cc68 47bb 5a75 a33b 0182 6cbc
00000100: 41af fd3d 813b 863d e8a1 41bd 3498 ed3c
00000110: d69e 37bd 2826 0a3e 08f3 073e 44c5 873d
00000120: 79a0 63bb de09 c53c e02b 333e 2b0d 6cbd
00000130: ccc5 eebd 2384 733d 2717 bdbd 257f a33d
00000140: b560 92bc 2fb3 d73d b93a 953d 5523 9b3d
00000150: d62b 3c3c 9ee1 313e 878f 06bd d943 47bd
00000160: 9e00 993c 4c0f 3a3e ba56 50bc 917a 0fbc
00000170: a205 273e 78c3 63bd 428c 99bb 618a 073e
00000180: 5ac1 47bd 287f c73c c275 81bd 5359 0a3e
00000190: b4a9 75bc 5246 6d3d d164 c3bc 9b8a b4bd
000001a0: 8af5 823c 0c10 203e ddcc e33d 2eba 82bd
000001b0: e90a ab3b c774 5dbd d3cf 123d c38e de3b
000001c0: 9eac 553c fd49 303c 6b1b af3d 5fad dbbb
000001d0: 61a3 073e cd44 5fbd e7ca bcbd 7121 f6bc
000001e0: b3b3 053e 1d94 1f3e 463b c43d 9d77 87bc
000001f0: 03a7 2e3e ea5a 85bd aeaf 35bd bdc3 f63c
00000200: 69a2 adbd 03e2 cdbd fd21 77bd ab8b ed3b
00000210: ec68 a53d 67d7 3c3d a5e6 463c 1965 c33c
00000220: 8fcc 0cbe 449f 053e 9fca c2bc a63b 17be
00000230: 4de8 7e3d fa68 b23d 06d0 993d 4b08 a4bd
00000240: 5720 8cbd e199 41bd fe35 8dbd 928f 653d
00000250: 8330 253b a111 27bd d32d a43c 1fd0 69bd
00000260: 4245 3fbd 673b 843d 44c1 dc3c b615 00be
00000270: 4e06 d0bd b545 123e eadf c43d ab60 f23d
00000280: 0a0c 1cbd e699 b83d b66f e23d fd05 b2bd
00000290: 2f21 be3d 0ef8 84bd 3ecf 1a3e 0123 8dbd
000002a0: 4b79 23bd 02f6 25bd 7def 133d 8e4d 253b
000002b0: 4598 c23d 7ed2 2f3d 3c26 a6bd 97fc b23d
000002c0: 404f cfbd 75f2 b0bd 19a7 a6bd 7f7d e23d
000002d0: 3247 ffbc ef16 f93d 63fb 193d 8e39 8abd
000002e0: 6b04 7bbd 5775 dd3b f54e c0bd 7cc4 903c
000002f0: f629 a53d f8ea 1abe 977a b4bc 2468 b23d
00000300: 24b5 393d a3f0 223e ae39 073e 27fe 033e
00000310: 41e1 99bc 21a8 333e 265b 5abd 7940 c13d
00000320: 561a 18bc d530 11bd 4103 623c 1f91 9b3d
00000330: c295 273e fa6b 87bd 3e27 8b3b 5001 c43c
00000340: e47a 653d b685 44bd fede 0dbd 1115 24bd
00000350: c927 a5bc 83ff 613e aaf3 473e f794 f13d
00000360: efe4 313d 2893 413e 9161 1c3e 3f3b 703d
00000370: f2b7 cabc e27e ab3d 08e3 e83d 1bc9 e03d
00000380: 0b72 ed3d 4421 3a3d 9e5c a9bb c804 613d
00000390: af55 af3d 77d2 a03d ae88 f93d 9ab4 353e
000003a0: 2872 3d3c ede4 12bd 5414 923d ff1e 843c
000003b0: 88ea e9bc 502d 013d 78ec fe3d 72d1 573c
000003c0: 493f ca3d 938f 663d cbdf 563d 3f9e 343e
000003d0: a086 db3c d322 433c d0de ce3d 6cd1 fcbb
000003e0: 5b0f 283e 7cd9 8fbd 7735 9a3d 7763 2cbd
000003f0: cc4c 2e3e 4218 943d d7f2 5cbb b8e0 ecbc
